…
        ship       0.86      0.84      0.85      1000
       truck       0.73      0.85      0.79      1000

    accuracy                           0.71     10000
   macro avg       0.73      0.71      0.71     10000
weighted avg       0.73      0.71      0.71     10000

Model: "model_4"
_________________________________________________________________
Layer (type)                 Output Shape              Param #   
=================================================================
input_2 (InputLayer)         [(None, 32, 32, 3)]       0         
_________________________________________________________________
block7_conv1 (Conv2D)        (None, 32, 32, 64)        1792      
_________________________________________________________________
block7_BN1 (BatchNormalizati (None, 32, 32, 64)        256       
_________________________________________________________________
block7_activation1 (Activati (None, 32, 32, 64)        0         
_________________________________________________________________
block7_pool1 (MaxPooling2D)  (None, 16, 16, 64)        0         
_________________________________________________________________
block8_conv1 (Conv2D)        (None, 16, 16, 64)        36928     
_________________________________________________________________
block8_BN1 (BatchNormalizati (None, 16, 16, 64)        256       
_________________________________________________________________
block8_activation1 (Activati (None, 16, 16, 64)        0         
_________________________________________________________________
block8_pool1 (MaxPooling2D)  (None, 8, 8, 64)          0         
_________________________________________________________________
block8_flatten (Flatten)     (None, 4096)              0         
_________________________________________________________________
block8_dense1 (Dense)        (None, 512)               2097664   
_________________________________________________________________
block8_dropout2 (Dropout)    (None, 512)               0         
_________________________________________________________________
block8_dense2 (Dense)        (None, 64)                32832     
_________________________________________________________________
block8_dense3 (Dense)        (None, 10)                650       
=================================================================
Total params: 2,170,378
Trainable params: 2,170,122
Non-trainable params: 256
_________________________________________________________________