…
        ship       0.72      0.70      0.71      1000
       truck       0.41      0.85      0.55      1000

    accuracy                           0.48     10000
   macro avg       0.56      0.48      0.45     10000
weighted avg       0.56      0.48      0.45     10000

Model: "model_5"
_________________________________________________________________
Layer (type)                 Output Shape              Param #   
=================================================================
input_2 (InputLayer)         [(None, 32, 32, 3)]       0         
_________________________________________________________________
block1_conv1 (Conv2D)        (None, 32, 32, 64)        1792      
_________________________________________________________________
block1_BN1 (BatchNormalizati (None, 32, 32, 64)        256       
_________________________________________________________________
block1_conv2 (Conv2D)        (None, 32, 32, 64)        36928     
_________________________________________________________________
block1_BN2 (BatchNormalizati (None, 32, 32, 64)        256       
_________________________________________________________________
block1_pool (MaxPooling2D)   (None, 16, 16, 64)        0         
_________________________________________________________________
block1_dropout (Dropout)     (None, 16, 16, 64)        0         
_________________________________________________________________
block2_conv1 (Conv2D)        (None, 16, 16, 128)       73856     
_________________________________________________________________
block2_BN1 (BatchNormalizati (None, 16, 16, 128)       512       
_________________________________________________________________
block2_conv2 (Conv2D)        (None, 16, 16, 128)       147584    
_________________________________________________________________
block2_BN2 (BatchNormalizati (None, 16, 16, 128)       512       
_________________________________________________________________
block2_pool (MaxPooling2D)   (None, 8, 8, 128)         0         
_________________________________________________________________
block2_dropout (Dropout)     (None, 8, 8, 128)         0         
_________________________________________________________________
block3_conv1 (Conv2D)        (None, 8, 8, 256)         295168    
_________________________________________________________________
block3_BN1 (BatchNormalizati (None, 8, 8, 256)         1024      
_________________________________________________________________
block3_conv2 (Conv2D)        (None, 8, 8, 256)         590080    
_________________________________________________________________
block3_BN2 (BatchNormalizati (None, 8, 8, 256)         1024      
_________________________________________________________________
block3_conv3 (Conv2D)        (None, 8, 8, 256)         590080    
_________________________________________________________________
block3_BN3 (BatchNormalizati (None, 8, 8, 256)         1024      
_________________________________________________________________
block8_flatten (Flatten)     (None, 16384)             0         
_________________________________________________________________
block8_dense1 (Dense)        (None, 512)               8389120   
_________________________________________________________________
block8_dropout2 (Dropout)    (None, 512)               0         
_________________________________________________________________
block8_dense2 (Dense)        (None, 64)                32832     
_________________________________________________________________
block8_dense3 (Dense)        (None, 10)                650       
=================================================================
Total params: 10,162,698
Trainable params: 8,422,602
Non-trainable params: 1,740,096
_________________________________________________________________